TrainData.pth (torch, 3863 bytes, 6 tensors)

l1.weight f4 [8, 29]
0	0x3d6f7a09	0.05846599
1	0xbd100844	-0.035164133
2	0x3ed86b93	0.42269573
3	0xbf045cb9	-0.51703984
4	0x3f0bc7e1	0.54601866
5	0x3e9b2ea8	0.30309033
6	0x3de29e7d	0.110653855
7	0x3e917d62	0.28415972
8	0xbf09232d	-0.535693
9	0x3edf15da	0.4357136
10	0x3f2f3626	0.68442
11	0x3e6af176	0.22943673
12	0x3ec3494a	0.38141853
13	0xbec0519f	-0.37562272
14	0xbde5d94b	-0.11223086
15	0xbec81d16	-0.3908469
16	0xbe55129a	-0.20807877
17	0xbf0923c1	-0.5357018
18	0xbe4c802c	-0.19970769
19	0xbe652ae2	-0.2237964
20	0x3f0efa7b	0.5585095
21	0xbef02614	-0.4690405
22	0x3e987106	0.2977373
23	0xbed8b098	-0.4232223
24	0x3ed72ca2	0.4202624
25	0x3eb0b7ad	0.34515134
26	0x3ec129e8	0.37727284
27	0x3eb42004	0.35180676
28	0x3e2cdc74	0.16880971
29	0xbda1e211	-0.07904447
30	0x3f1f5fc0	0.6225548
31	0xbe9fc290	-0.31203127
32	0x3f254250	0.6455431
33	0xbf075b84	-0.52874017
34	0x3f6300af	0.8867292
35	0x3f42f001	0.76147467
36	0xbf075773	-0.5286781
37	0x3f13ba41	0.57706076
38	0xbf0759ca	-0.5287138
39	0xbee43ce3	-0.44577703
40	0x3f599ee3	0.85008067
41	0xbe541e44	-0.2071467
42	0x3ef22466	0.47293395
43	0x3e2f20fc	0.17102426
44	0xbde71944	-0.11284116
45	0x3efec016	0.49755925
46	0x3f39283a	0.72327006
47	0x3e989f35	0.29808965
48	0x3e0e0226	0.13868007
49	0xbf075910	-0.52870274
50	0xbd930ed5	-0.07180563
51	0xbdc8a2f3	-0.09796705
52	0xbe11ffa1	-0.14257671
53	0xbccbe43a	-0.0248891
54	0xbe9d2913	-0.306954
55	0xbe632e27	-0.22185574
56	0x3e137280	0.14399147
57	0x3d7e82cd	0.06213646
58	0x3e9c87df	0.3057241
59	0xbed47541	-0.41495708
60	0xbcd0e049	-0.025497572
61	0x3da65415	0.08121506
62	0x3f2848d2	0.65736115
63	0xbec8702d	-0.39148083
64	0xbed46f22	-0.41491038
65	0xbec3ab24	-0.38216507
66	0x3e59d5c5	0.21272953
67	0xbed47676	-0.4149663
68	0xbea3500d	-0.3189701
69	0xbcbe7c31	-0.023252578
70	0x3eeababb	0.4584559
71	0x3c5f4e29	0.013629475
72	0x3df0ed74	0.117640406
73	0x3f7268a5	0.94690925
74	0x3e0c816a	0.13721243
75	0xbe931710	-0.28728533
76	0x3e14aba1	0.14518596
77	0x3e9f4d26	0.31113547
78	0x3f0b1dc6	0.54342306
79	0x3f14b955	0.58095294
80	0xbe7a2800	-0.24429321
81	0x3f68a699	0.9087921
82	0x3f028b60	0.5099392
83	0xbe87712c	-0.2645353
84	0xbe1a3057	-0.15057503
85	0x3edf4ff4	0.43615687
86	0xbe164f37	-0.14678656
87	0x3e49f3f0	0.19721961
88	0xbe16f717	-0.14742695
89	0xbe519b2a	-0.20469347
90	0x3f136a71	0.5758429
91	0xbed4521e	-0.414689
92	0xbe415906	-0.18881616
93	0xbebf37d4	-0.3734728
94	0xbed44fc6	-0.41467112
95	0x3f15ef7c	0.5856855
96	0xbed44f98	-0.41466975
97	0xbed44ff4	-0.4146725
98	0xbe58132a	-0.2110106
99	0xbe9adfd5	-0.30248895
100	0x3ee841cd	0.45362702
101	0x3ed8716b	0.4227403
102	0x3f629a61	0.88516814
103	0x3e6b338d	0.22968884
104	0x3f21f801	0.6326905
105	0x3ee70cfd	0.45127097
106	0x3e7f4ab7	0.24930845
107	0xbed45c20	-0.41476536
108	0x3edea044	0.43481648
109	0xbea644f0	-0.3247447
110	0x3f571c9f	0.8402805
111	0xbe814652	-0.25248963
112	0xbddedafc	-0.10881612
113	0xbe9c967d	-0.30583563
114	0x3eb72a2a	0.35774356
115	0x3e9aae92	0.30211312
116	0xbc95b5ae	-0.018275108
117	0x3f7ab1c0	0.97927475
118	0x3e83389b	0.25629124
119	0xbedf1283	-0.4356881
120	0x3f60ee81	0.8786393
121	0x3eb4262c	0.35185373
122	0x3ef1a849	0.47198704
123	0xbdd654c2	-0.10465385
124	0xbedbe581	-0.42948535
125	0xbda5498a	-0.08070667
126	0xbe74eccc	-0.23918456
127	0x3e7e010f	0.24805091
128	0x3e7adbed	0.24497958
129	0xbe4c707f	-0.19964789
130	0xbc8f3dac	-0.017485462
131	0xbedf028e	-0.43556637
132	0x3c03117e	0.007999776
133	0xbed979dc	-0.42475784
134	0xbe0554c8	-0.13020623
135	0x3cdfbfa4	0.027313061
136	0x3f3ab433	0.7293121
137	0xbdfc6010	-0.1232301
138	0x3e940042	0.28906447
139	0xbedb10d3	-0.42786273
140	0x3df5cef7	0.12002366
141	0x3eb9c649	0.36284092
142	0x3ea01d75	0.31272474
143	0x3e08ee8e	0.13372251
144	0xbe56104e	-0.20904657
145	0x3ea10069	0.31445625
146	0xbf1b2604	-0.6060488
147	0xbe79fd36	-0.24412999
148	0x3f0c84f3	0.54890364
149	0x3edea77f	0.43487164
150	0xbe9c2717	-0.30498573
151	0xbf1b2ab5	-0.6061204
152	0xbe848adb	-0.25887188
153	0x3e84c7dc	0.2593373
154	0xbd85e991	-0.0653869
155	0xbe638727	-0.22219525
156	0xbe7e65e4	-0.24843556
157	0x3d8bc7cd	0.06825218
158	0x3e5d555a	0.2161459
159	0x3caf4cad	0.021398867
160	0x3f5405ec	0.82821536
161	0x3e5e829f	0.21729515
162	0x3f11ce9d	0.5695589
163	0x3e72513d	0.23663802
164	0x3d586870	0.052833974
165	0x3efa03df	0.48831078
166	0x3eb2e992	0.34943825
167	0xbe463ae2	-0.193584
168	0x3f41dfda	0.75732195
169	0x3dec723a	0.115452245
170	0xbe9ff5a1	-0.31242087
171	0xbe5a99b9	-0.21347703
172	0x3e85c9ea	0.2613061
173	0x3ee3bd40	0.44480324
174	0xbd426bb6	-0.047466002
175	0xbf123c92	-0.5712367
176	0x3ef4703f	0.47741887
177	0x3f1374fd	0.57600385
178	0xbe7b1125	-0.24518259
179	0xbe6e0d7c	-0.23247331
180	0xbf1e5e25	-0.61862403
181	0x3f405b1a	0.7513901
182	0x3f4153e0	0.7551861
183	0x3f22cabd	0.63590604
184	0x3f31482e	0.6925076
185	0xbeae4ef1	-0.34044603
186	0xbe261e88	-0.16222584
187	0x3e39d15b	0.18146269
188	0x3eb309e8	0.34968495
189	0xbea7e2ee	-0.3279032
190	0x3ef3a506	0.4758684
191	0x3f17503a	0.5910679
192	0x3ea9a13b	0.33130822
193	0x3ef52ffa	0.47888166
194	0xbeb57ad7	-0.35445282
195	0xbe1ef0ec	-0.15521592
196	0x3f1264d7	0.5718512
197	0xbea3be3b	-0.31981072
198	0xbd427c46	-0.047481798
199	0x3ee5e00c	0.44897497
200	0x3f35eb9f	0.71062654
201	0xbe16a113	-0.14709882
202	0x3eb1b11c	0.34705436
203	0xbe511848	-0.20419419
204	0x3f08edc9	0.5348783
205	0x3e7e12ed	0.24811907
206	0x3f7ebf09	0.99510247
207	0xbf1852e4	-0.5950148
208	0x3ee54b7e	0.44784158
209	0x3f4676ec	0.7752521
210	0x3ece084b	0.40240702
211	0x3f48edc4	0.784878
212	0x3f2f1f8c	0.6840751
213	0x3efbc3d8	0.49172854
214	0x3e67b5d0	0.2262795
215	0xbda6ae66	-0.081387326
216	0x3eb8ddb2	0.3610664
217	0x3e99983d	0.2999896
218	0xbf322b3a	-0.6959721
219	0x3e9f51c0	0.31117058
220	0x3f345f64	0.70458055
221	0x3eb4e364	0.35329735
222	0x3f123d62	0.5712491
223	0xbf289b10	-0.65861607
224	0x3d65c328	0.05609432
225	0x3eb45ee9	0.3522866
226	0xbf32322c	-0.69607806
227	0x3dfe34e1	0.124124296
228	0x3e56150e	0.20906469
229	0x3e8eca13	0.27888545
230	0x3d4b66b7	0.049658503
231	0x3f0b861f	0.5450153

l1.bias f4 [8]
0	0x3f092304	0.53569055
1	0x3f07579c	0.52868056
2	0x3ed472e7	0.41493914
3	0x3ed44fd2	0.41467148
4	0x3edf0145	0.43555656
5	0x3f1b28c1	0.6060906
6	0x3f1e5c35	0.61859447
7	0x3f322864	0.6959288

l2.weight f4 [8, 8]
0	0xbf86862f	-1.05097
1	0x3edce8ab	0.43146262
2	0x3f4930db	0.7859017
3	0x3fb7dab5	1.4363619
4	0xbf93884a	-1.1525967
5	0x3fa0889c	1.254169
6	0x3f5b577d	0.8568037
7	0x3f2cec69	0.67548233
8	0x3f112773	0.5670082
9	0xbec1c9d3	-0.37849292
10	0x3f83c5c4	1.0294728
11	0x3e9cf4b9	0.3065546
12	0x3e8bbcdb	0.27292523
13	0x3fa7f88c	1.3122725
14	0xbe8944ce	-0.26810306
15	0xbfa5be71	-1.2948743
16	0x3f22fe28	0.6366906
17	0xbf1b7667	-0.6072754
18	0xbe6b9a17	-0.23008
19	0xbe7314ed	-0.23738451
20	0xbe45ee35	-0.1932915
21	0x3dd854aa	0.105630234
22	0x3f933076	1.1499164
23	0x3f0772ec	0.5290973
24	0x3f022047	0.508305
25	0xbf4e425e	-0.8057002
26	0x3f00e3f4	0.5034783
27	0xbf6cd1b5	-0.9250749
28	0x3fa6d53f	1.3033828
29	0x3f0cc7f6	0.54992616
30	0xbe35b642	-0.17745307
31	0xbf46f51c	-0.7771776
32	0xbe6cb725	-0.23116739
33	0x3fb61310	1.4224567
34	0xbed67e49	-0.41893223
35	0x3eb3571a	0.3502739
36	0x3f44adcd	0.768277
37	0xbeda729a	-0.4266556
38	0xbe420858	-0.18948495
39	0x3f8057a3	1.0026745
40	0x3fa01738	1.2507086
41	0x3dc433ca	0.095801905
42	0xbf604910	-0.87611485
43	0xbf65e344	-0.89799905
44	0x3f8485ab	1.0353292
45	0xbf7fe3b1	-0.99956805
46	0x3e60a529	0.21938004
47	0x3f5c1f83	0.85985583
48	0x3f5012a4	0.81278443
49	0xbf576561	-0.84139067
50	0xbed0b25b	-0.40761074
51	0xbebe68d6	-0.37189358
52	0xbebf9b6a	-0.3742326
53	0xbe978149	-0.29590824
54	0x3eecb4e7	0.46231768
55	0x3f38d300	0.7219696
56	0x3ef0ae1b	0.47007832
57	0xbf466f54	-0.77513623
58	0xbec3b0aa	-0.3822072
59	0xbf0fd39d	-0.5618227
60	0x3e72cf2a	0.2371184
61	0x3f5637f0	0.83679104
62	0x3f95ac41	1.1693193
63	0x3ebba3e7	0.36648485

l2.bias f4 [8]
0	0x3dece0a2	0.11566283
1	0x3f1d24ac	0.6138408
2	0x3e8f0481	0.27933124
3	0x3d279833	0.040916633
4	0x3e64aa2f	0.22330545
5	0x3f206776	0.6265787
6	0x3de5fa2a	0.11229356
7	0xbd0f082a	-0.034919895

l3.weight f4 [5, 8]
0	0xbed8ed03	-0.42368326
1	0xbf62f9d3	-0.8866245
2	0x3f148122	0.5800954
3	0xbf808972	-1.0041945
4	0xbfa9e419	-1.3272735
5	0x3f23a685	0.63925964
6	0x3f3c5572	0.7356788
7	0x3f8a493b	1.0803598
8	0x3f486a49	0.7828718
9	0xbfa994f8	-1.3248587
10	0x3e4e1232	0.20124128
11	0xbee327bd	-0.44366255
12	0x3ea82ef9	0.32848337
13	0xbf69fcce	-0.91401374
14	0xbf80bb17	-1.0057095
15	0xbe4c3eac	-0.19945782
16	0xbf5c7615	-0.8611768
17	0xbf3c6b92	-0.7360164
18	0xbec461b9	-0.38355806
19	0xbf8decc8	-1.1087885
20	0x3f7b2258	0.9809928
21	0x3f424789	0.75890404
22	0xbf2bbd8c	-0.670861
23	0xbfd0172b	-1.625707
24	0x3f1ab232	0.60428154
25	0x3f7f2a3c	0.9967382
26	0xbf795058	-0.9738822
27	0xbf3a4dc5	-0.72774917
28	0xbfacf41c	-1.3511996
29	0xbf1e904e	-0.6193894
30	0xbeca66cf	-0.39531562
31	0xbfe6dabb	-1.8035501
32	0xbf8febb1	-1.1243802
33	0x3f68a665	0.908789
34	0x3c68c47e	0.014207004
35	0x3f7da871	0.99085146
36	0xbf6556b6	-0.89585435
37	0xbe3aec4d	-0.18254204
38	0xbf8d3732	-1.1032469
39	0x3e33b550	0.17549634

l3.bias f4 [5]
0	0xbd4f72a2	-0.05064643
1	0x3ce5d32b	0.028054794
2	0x3e98ffbc	0.2988261
3	0x3e07ed7a	0.13274184
4	0x3d571a21	0.052515153
